old_cohortney/experiments/rnn/event_0/exp_0/last_model.pt (torch, 354003 bytes, 18 tensors)

hidden0 f4 [4, 3, 128]
000000 f7 fe ca be 88 13 24 3f 7c e1 09 3f ba cb 26 bf
       -0.39647648 0.640923 0.53859687 -0.6515461
000010 88 c0 1b bf ed 3e e2 be 1e 51 0b bf b4 b2 06 3f
       -0.60840654 -0.44188634 -0.5442065 0.5261643
000020 32 8a 0a 3f 4e 8e 20 3f 77 d2 23 bf 90 b2 d3 bc
       0.5411712 0.6271714 -0.6399302 -0.025841981
000030 fd 37 1f 3f 10 7e 21 3f 0c d1 06 bf d6 35 28 be
       0.62194806 0.6308298 -0.5266273 -0.16426787
000040 0f 2e 29 3f c1 a5 dd 3e 20 d0 24 bf ab 15 80 be
       0.66085905 0.43290523 -0.64380074 -0.2501653
000050 c2 ae 25 3f bd 89 e3 be 1a 01 e4 be 0d 09 df 3e
       0.64719784 -0.44441023 -0.4453209 0.43561593
000060 70 eb e3 bc 70 31 d8 3e f8 61 67 bd ea 45 dc 3e
       -0.027822226 0.42225218 -0.056489915 0.4302209
000070 80 ed 28 bf 8d 41 15 3e 6c dd 07 3f 3f 78 07 3e
       -0.65987396 0.14575787 0.5307224 0.13229464
000080 52 ed e1 be 04 fa 27 3f e2 1e 64 3e 90 12 e7 bc
       -0.44126374 0.6561587 0.22277406 -0.028207093
000090 75 5b df be b8 89 da be 40 76 09 3f dc 48 22 bf
       -0.43624464 -0.42683196 0.5369606 -0.63392425
0000a0 8a fb 27 3f b7 bf 07 3f ac 58 db be 69 e2 0a bf
       0.65618193 0.5302691 -0.4284109 -0.54251724
0000b0 69 97 2b 3f 62 33 09 3f 9f d3 e7 be c2 74 d5 be
       0.6702791 0.5359403 -0.45278642 -0.41690642
0000c0 5c 4a e1 be 1c 87 e1 3e 8f 5d 09 3f 5f ec 24 3f
       -0.44002044 0.44048393 0.53658384 0.64423174
0000d0 24 b2 22 3f 87 c5 09 3f a2 6e 1d bf 42 30 2a bf
       0.6355307 0.5381703 -0.6149694 -0.66479886
0000e0 5e a3 2b 3f a2 4e 37 be d6 a3 da be 5d 32 0a 3f
       0.67046154 -0.1790109 -0.42703122 0.539831
0000f0 24 78 69 bd a4 2f 0f bf 7c 53 d5 3e 8b 2d e0 be
       -0.05699934 -0.5593207 0.41665256 -0.43784747
000100 4b fb 27 bf 16 fa 24 bf eb a0 85 be 4b ae da 3e
       -0.6561782 -0.644441 -0.26099333 0.427111
000110 b1 c8 0a bf a4 84 0b 3f 40 40 06 3d 10 0f e2 3e
       -0.5421248 0.5449927 0.032776117 0.44152117
000120 77 42 e9 3e 92 dd de 3e f1 43 20 bf d2 bf dd be
       0.4555852 0.4352842 -0.6260367 -0.4331041
000130 62 41 d1 3e 84 3e 17 3f 14 f4 00 bf 60 89 dc be
       0.40870196 0.59079766 -0.50372434 -0.4307356
000140 84 ec e8 be 08 97 db 3e 52 af 25 bf 62 f8 ab be
       -0.45492947 0.42888665 -0.6472064 -0.3358794
000150 3c 68 25 bf 9c 0a d1 be 60 fa f9 bb ce 94 ef be
       -0.64612174 -0.40828407 -0.007628724 -0.46793216
000160 2e 52 db 3e 1e a7 d9 3e 8e 9c 25 bf a0 58 05 3f
       0.42836136 0.42510313 -0.6469201 0.52088356
000170 83 9d 22 bf d8 70 db be cd a4 26 bf ed f3 09 bf
       -0.63521594 -0.4285953 -0.65095216 -0.53887826
000180 88 8d 22 3f 96 0e d5 3e 3f 2d 06 3f dc 40 de be
       0.6349721 0.4161269 0.5241279 -0.4340886
000190 1c 48 27 bf 62 2c 23 bf 17 22 8d be d6 1a d8 3e
       -0.65344405 -0.637396 -0.2756507 0.42207974
0001a0 04 f3 25 3f eb e3 09 3f 50 c7 06 3f 32 b8 df 3e
       0.6482394 0.538634 0.52647877 0.43695217
0001b0 46 8a de 3e 1b 34 dd 3e a5 ff 09 bf bb d3 d9 3e
       0.4346487 0.43203816 -0.5390571 0.4254435
0001c0 11 60 08 3f f0 36 0c 3f 4a 73 01 bf 6d 6e ee 3e
       0.53271586 0.5477133 -0.5056654 0.46568623
0001d0 9a 52 24 3f aa a6 dc be 58 f8 59 bd 98 fc dc be
       0.6418854 -0.43095905 -0.053215355 -0.43161464
0001e0 9e 90 d3 3e 5c 5e 23 bf 3e da 09 3f e0 55 e1 bd
       0.41321272 -0.63815856 0.53848636 -0.110027075
0001f0 b0 2c 14 bd e4 0c 24 bf b0 54 db be be 76 df be
       -0.03617543 -0.6408217 -0.4283805 -0.4364528
000200 08 d3 77 3d 39 69 1d 3e ae 6f d4 be 0a 8a 7a be
       0.06050399 0.1537217 -0.41491455 -0.2446672
000210 4e 27 a1 3d b9 8e f4 3e 00 4c 3d 3d 24 9d 43 bd
       0.07868825 0.4776514 0.046215057 -0.047757283
000220 fe 7a ae 3e 62 ca 9a 3e 2e 9b 08 be bc f2 67 bd
       0.3407821 0.3023253 -0.13340446 -0.056627974
000230 54 4b cc bd f3 7a 57 3e ae 4b 63 be b6 33 58 3e
       -0.09975305 0.21042995 -0.22196838 0.21113476
000240 78 51 42 3d 60 fb a2 bd c8 37 aa 3c 08 89 a3 3e
       0.047440976 -0.07958102 0.020778552 0.31940484
000250 15 1f 8e be c2 c6 21 3e c2 0e 7c 3e ea 51 9f be
       -0.2775809 0.15798476 0.24615005 -0.31117183
000260 60 38 14 be dd fa 35 3e 3f d1 10 3e b0 c9 f0 3c
       -0.1447463 0.17771478 0.14142321 0.029393047
000270 04 11 ad 3e 0c c7 a0 3d 40 d3 c0 bd 3b 8f b7 3e
       0.33802044 0.07850465 -0.09415293 0.35851464
000280 02 fc 7d 3e d0 ed 96 3e 74 4b 57 3d e6 5f fe 3d
       0.24803165 0.29478312 0.052562192 0.12420635
000290 9e 08 69 3e 88 b6 72 bd 72 d7 b7 be 6c 25 4c be
       0.22757193 -0.059256107 -0.3590656 -0.1993615
0002a0 f0 6d cc 3c 60 cd a0 3c 60 02 4e bd e2 fc ad bd
       0.024954766 0.01962918 -0.050295234 -0.08495499
0002b0 24 99 cb 3e aa c5 0b bf d8 32 f7 3c 68 72 a8 be
       0.39765275 -0.54598486 0.030175611 -0.32899785
0002c0 be bc b4 be f8 67 80 3d d6 17 6d 3e 78 af 90 bc
       -0.3530025 0.062698305 0.23153624 -0.017661795
0002d0 18 cd 4f bd 00 d0 e0 bc 7c 68 b8 3d d0 40 85 be
       -0.050732702 -0.027442932 0.09004304 -0.2602601
0002e0 c0 e6 be 3d 60 c9 7f bd 40 d2 f3 3c 60 78 83 be
       0.09321356 -0.062447906 0.029763341 -0.25677776
0002f0 94 ba 25 bf 00 92 fa ba a5 7b ca 3e dc 14 f3 3d
       -0.6473782 -0.0019116998 0.39547458 0.11869213
000300 4c 22 ed bd e5 fc 32 3e 64 6d 86 3e ff 1a bf 3e
       -0.11578807 0.17479284 0.26255333 0.37325284
000310 1d 75 f5 be b8 3b 6b 3e a8 3e 39 bd 76 67 82 be
       -0.47940913 0.22972 -0.04522577 -0.2546956
000320 20 74 61 3e 1b 1d a8 be 35 19 ee be 2d 20 45 be
       0.22016954 -0.32834706 -0.46503606 -0.19250555
000330 d9 11 23 be 80 b0 df bb de ab a2 bd 50 33 e1 bc
       -0.15924777 -0.0068264604 -0.07942937 -0.027490288
000340 78 8d 89 3e d8 57 1b 3f ee 8e 79 be 66 9f 18 be
       0.26865745 0.60680914 -0.2437093 -0.14904556
000350 aa 27 93 3d 4d bf a9 3e ec 2f 2b 3d 9a 5a 1d 3f
       0.071853 0.33153763 0.04179375 0.6146637
000360 42 70 a7 bd 25 1b 1a be 84 0f ef 3d be 88 d7 bd
       -0.08175708 -0.15049417 0.11672881 -0.105241284
000370 e7 40 93 be 30 d5 25 bd 60 a5 2c 3c da 47 ba 3d
       -0.28760454 -0.040486515 0.010537475 0.09095736
000380 94 36 88 bd b0 69 fb 3d 02 97 72 3e 61 b3 04 bf
       -0.06651035 0.12276018 0.23690417 -0.5183621
000390 b1 da 9d 3e 72 a5 3c 3e ac f6 12 bd 7b 8f 17 3f
       0.3083091 0.18422487 -0.035879776 0.5920331
0003a0 9d ce 1a be 88 35 b7 be 11 4a 29 be 3c c9 5f be
       -0.15117879 -0.3578303 -0.1653216 -0.21854109
0003b0 80 9f 21 bb 00 52 48 3d b6 dc c1 bd ce 3e e3 3e
       -0.002466172 0.048906326 -0.094659254 0.44383854
0003c0 61 cb f9 bd 60 c2 14 3c 92 26 cf 3d 7a b9 c7 3e
       -0.121969946 0.009079546 0.101147786 0.39008695
0003d0 50 82 e8 bc 0c cb 27 be 5c be 82 3e 72 28 d8 bd
       -0.02838245 -0.1638605 0.25535858 -0.10554589
0003e0 62 3d 36 3f 59 82 37 be 03 cd 45 be ba 90 81 be
       0.7118741 -0.17920817 -0.19316487 -0.2530573
0003f0 c0 10 5e 3c a7 62 2a 3e f0 ba 72 be a0 5a d2 bc
       0.013553798 0.16639195 -0.23704123 -0.025677979

W f4 [128, 5]
000000 e8 10 be 3d 9e 2d 12 3e 93 05 ee 3d ee 80 c8 3b
       0.09280568 0.14275214 0.11622157 0.0061188852
000010 b2 b0 fc 3d 0d 41 b0 bd 00 89 a2 bd 95 70 b1 bd
       0.123383895 -0.086061575 -0.07936287 -0.086640514
000020 30 92 36 be 62 ac aa bd 61 4f 92 3e 75 61 aa 3e
       -0.17829204 -0.08333661 0.28576186 0.3327748
000030 e8 aa 9e 3e 8c 79 3f 3e 18 39 9b 3e 5b 0c 31 be
       0.30989766 0.1869871 0.30316997 -0.1728987
000040 63 17 88 be 77 fb 51 be 1f ca 84 bd ac 4b 6c be
       -0.26580343 -0.20506082 -0.06483864 -0.23075742
000050 44 8b 54 3e 89 ff 12 3e 15 e0 15 3e 72 2b 05 3e
       0.2075625 0.14355291 0.14636262 0.13004854
000060 9e 90 a9 3e 30 4f 34 3d 7b a9 c0 3d b0 17 7b 3d
       0.33118147 0.04402083 0.09407326 0.061301887
000070 7c 62 85 bd 84 06 7c 3d b0 21 c8 3d 3e 56 d4 3d
       -0.06512925 0.06152965 0.097720504 0.10368012
000080 ec 1c bb 3d 53 f3 ea 3d c7 1b 74 3d 6f 97 8d be
       0.09136376 0.11472192 0.059596803 -0.27654597
000090 8d 64 8e be 8e dc 77 be d0 05 c2 bd 49 f6 95 be
       -0.2781109 -0.24205229 -0.09473765 -0.29289463
0000a0 bc d4 a1 be 8a 90 c0 be b6 40 ae be 20 02 1f be
       -0.31607616 -0.37610275 -0.34033746 -0.15528154
0000b0 5c c6 b4 be 8a 7c 44 3e 09 ef 0f 3e 39 bd 03 3e
       -0.35307586 0.19188133 0.14056028 0.12865151
0000c0 8a 0c 09 3e 93 e2 24 3e e4 e5 cc 3d 4a 8b 68 3c
       0.1338369 0.16102056 0.10004786 0.014193365
0000d0 bf e4 46 3d 01 b4 47 3d 7c 96 38 3d 05 40 35 3c
       0.048557993 0.04875565 0.045065388 0.011062627
0000e0 a0 37 ba bd aa 1a 0b bd 96 c3 23 3e 1f 26 1e bd
       -0.09092641 -0.033960976 0.15992579 -0.038610574
0000f0 8f ea 82 bc b9 19 44 3d 08 7c bd 3c 42 12 3b bd
       -0.015980987 0.047876094 0.023130432 -0.04567171
000100 b5 f4 a1 3b 73 35 f3 bb d6 54 08 3c 7a 2f 70 3c
       0.0049425014 -0.007422143 0.008321008 0.014659757
000110 c7 f0 91 bd 7a 00 11 bb 78 bd f0 be 32 18 eb be
       -0.07126003 -0.0022125528 -0.47019553 -0.45916897
000120 81 9a ed be 98 cd c7 be e9 a3 f2 be 54 c8 80 3e
       -0.4640694 -0.39024043 -0.4739068 0.25152838
000130 b7 3b 9b 3e 9e a1 8a 3e 1a 1c f9 3d 3f f4 97 3e
       0.30318996 0.2707643 0.12163563 0.29678532
000140 5b 7b cc be e0 d4 a6 be c5 87 a1 be 95 ff 8f be
       -0.39937863 -0.32584286 -0.31548896 -0.2812468
000150 b6 31 b6 be 7e ec 42 3e ec 5d 01 3e 11 33 16 3e
       -0.355848 0.19035527 0.12633485 0.14667918
000160 27 98 b8 3d e1 b9 1d 3e ae 17 cf be a6 45 bd be
       0.09013396 0.15402938 -0.40447754 -0.369672
000170 c5 b1 bf be 0f 89 a1 be 17 e7 ca be 75 e0 9a 3e
       -0.37440315 -0.3154988 -0.39629433 0.30249372
000180 9f dd 35 3e c8 87 53 3e 2e 2f 2b 3e ae bd 66 3e
       0.17760323 0.20657265 0.16717216 0.22533295
000190 21 aa ca 3d ca 19 b9 3d ce 87 97 3d 12 aa ac 3d
       0.09895731 0.09038122 0.073989496 0.08430876
0001a0 74 f1 ab 3d 7b 71 d3 3e d4 84 eb 3e ee 8f df 3e
       0.08395663 0.41297516 0.45999777 0.43664497
0001b0 24 3c 9a 3e 4d 0f f2 3e 9a 28 45 be 9f 22 00 be
       0.3012401 0.472773 -0.1925377 -0.12513207
0001c0 81 e2 14 be e1 09 c8 bd 33 c1 2b be 41 14 c9 3e
       -0.1453953 -0.09767509 -0.16772918 0.39273265
0001d0 ef 88 d4 3e 59 81 c7 3e 01 6c a1 3e c5 77 ce 3e
       0.41510722 0.38965872 0.31527713 0.40325752
0001e0 ac 4f a5 bd eb e9 6c 3b b3 69 07 bd 48 ec 3f be
       -0.08071837 0.0036150168 -0.033059787 -0.18742478
0001f0 f1 be 8b bd a3 9e 88 bd e8 20 4f bd 9d 75 4d bd
       -0.068235286 -0.066708826 -0.05056849 -0.050160993
000200 30 3c 8c bb fa 00 71 bd 08 56 18 bf 1c 2e 1e bf
       -0.004279636 -0.058838822 -0.59506273 -0.6178911
000210 16 c6 17 bf 46 ba f1 be 1b ba 1a bf 71 b6 03 3e
       -0.5928663 -0.47212428 -0.60440224 0.12862565
000220 87 d8 30 3e ae db 1b 3e c8 3a 4e 3d e1 5f 10 3e
       0.17270099 0.1522052 0.050349027 0.14099075
000230 ac 60 92 3d d6 e4 1f 3e b0 21 c9 3d a0 86 a7 bd
       0.07147345 0.15614638 0.098208785 -0.081799746
000240 f7 2c b7 3d 08 7a aa 3e 50 13 a9 3e ff 75 a0 3e
       0.08944123 0.33296227 0.33022547 0.31340024
000250 76 67 48 3e 00 0d a6 3e d5 a3 15 be 9e 39 58 be
       0.19570717 0.32431793 -0.14613278 -0.21115729
000260 4e 8c 4b be bd 2b b9 3c 29 88 44 be e4 9e 93 be
       -0.1987774 0.022603864 -0.19192566 -0.2883216
000270 ce 94 4d be 6b 77 6d be d5 4d 8c be 65 bb 82 be
       -0.20076296 -0.23190086 -0.2740313 -0.25533596
000280 ca ea 6e 3e dc 71 94 3e cd c9 85 3e c9 2c f8 3d
       0.23331752 0.28993118 0.26130524 0.12117917
000290 19 d6 80 3e 8f 8d 9a 3e c3 6f a4 3e 1a e1 aa 3e
       0.25163344 0.30186126 0.32116517 0.33374864
0002a0 9c 6e 95 3e 91 a6 a8 3e 12 24 24 be 56 12 71 be
       0.2918595 0.3293958 -0.16029385 -0.23542151
0002b0 2c db 39 be b1 68 98 bd b5 b3 49 be b3 9d 04 be
       -0.18150014 -0.07441843 -0.19697459 -0.12950782
0002c0 e3 2f f6 bd 2e af da bd 81 e0 17 be c1 39 c4 bd
       -0.120208524 -0.10677944 -0.14831735 -0.09581328
0002d0 02 65 8f 3e 24 e5 64 3e 0c 25 61 3e 6f a9 6f 3e
       0.2800675 0.22353035 0.21986789 0.23404478
0002e0 2e 09 52 3e dd 2a 17 be 2a f6 fa bd cc d3 11 be
       0.20511314 -0.14762445 -0.12253983 -0.1424095
0002f0 a7 f3 de bd fb cb 18 be ba 89 3c 3e f6 c4 d0 3d
       -0.10886317 -0.14921562 0.18411914 0.10193817
000300 eb bc 02 3e 2c e2 2c 3e f8 b7 04 3e f9 46 44 3e
       0.12767379 0.16883153 0.12960804 0.19167699
000310 70 37 32 3e 3a bb 2e 3e cf c2 5e 3d 8d 39 35 3e
       0.1740396 0.17063609 0.054385003 0.17697735
000320 28 05 a5 be ec 4a c5 be e5 51 a3 be db 4d 4a be
       -0.32230496 -0.38533723 -0.31898418 -0.19756262
000330 c6 6e ae be 8c 70 e2 3d 09 64 15 3e d6 fd 03 3e
       -0.34068888 0.11056623 0.14588942 0.128898
000340 79 9a 89 3c 37 a9 f6 3d ad ed bc 3e 81 d4 ff 3e
       0.016797291 0.12043994 0.36900082 0.49966815
000350 59 ad ec 3e ee 48 f7 3e 76 fe f1 3e 11 11 df bd
       0.46226004 0.48297828 0.4726445 -0.10891927
000360 bb 4f 00 be 60 1b b6 bd ec 60 93 bd e2 01 16 be
       -0.12530415 -0.0889194 -0.07196221 -0.14649156
000370 d1 4a 3d 3e ce 5b 94 3d 60 39 00 3e 74 4e 4b 3e
       0.18485571 0.07244073 0.12521887 0.19854146
000380 b6 c8 d4 3d 76 03 18 3d 24 e7 5f bd c0 0a 96 3c
       0.10389845 0.037112676 -0.054663792 0.018315673
000390 4f bc ed 3d d1 9e a9 3b 47 bc 1d be a7 27 33 be
       0.11608183 0.005176403 -0.15403853 -0.17495595
0003a0 a6 a4 23 be b1 0e f5 bd f8 cd 34 be 67 bb eb 3b
       -0.15980777 -0.11965693 -0.17656696 0.007193971
0003b0 82 a9 14 3c a7 38 38 bd 5e 9e 07 be 4e 65 d7 3c
       0.009073617 -0.044975903 -0.13244006 0.026293423
0003c0 49 11 5a be f6 32 ea bd ac 75 06 be 74 39 39 be
       -0.21295656 -0.11435501 -0.13130826 -0.18088323
0003d0 1f c9 30 be 28 75 33 bd 5b 1e cb 3a cf b5 4c bd
       -0.17264222 -0.0438129 0.0015496718 -0.049978074
0003e0 a8 c2 98 be 85 3f 30 bd 79 71 b5 be b2 85 b1 be
       -0.2983601 -0.043029327 -0.35438135 -0.34672314
0003f0 01 79 ac be 01 a5 74 be 24 78 ba be 85 93 f4 3d
       -0.3368607 -0.23891069 -0.36419785 0.119421996

weight_ih_l0 f4 [128, 6]
000000 82 5d 10 3e fc 1f 2b bf 51 5a a5 3e 9c 59 5e 3d
       0.1409817 -0.6684568 0.32295468 0.054284677
000010 45 1a 1f bf bf 73 23 bf 8b 92 06 3f 25 62 ba be
       -0.6214946 -0.6384849 0.52567357 -0.36403003
000020 ba e7 9e bd 32 81 f6 be 86 19 1f 3f 6c 19 d8 be
       -0.07759042 -0.48145443 0.6214832 -0.42206895
000030 ef 02 86 bf d0 2b 24 3d 3b 93 62 bf 68 3d b0 bd
       -1.0469645 0.040080845 -0.88505906 -0.08605462
000040 c9 58 c3 3d 4e 88 17 3e 2c 70 c0 be 9c 97 18 bf
       0.09538419 0.1479809 -0.3758558 -0.5960634
000050 b8 30 47 3e e0 d0 d9 be 4e 33 12 bf e4 e7 e9 be
       0.19452178 -0.4254217 -0.57109535 -0.4568473
000060 d2 0a fb 3e bb 63 c2 3e 1a 30 93 3e 1d 41 a7 3e
       0.49031693 0.37966713 0.28747636 0.32666865
000070 06 ad fb 3e 2f 67 d0 3e fb 60 f4 bd 24 fc 3a bf
       0.49155444 0.40703723 -0.1193256 -0.73040986
000080 2f d1 df 3d ca 65 a5 be fc 68 11 bf 4e 56 0d bf
       0.109285705 -0.3230422 -0.5680082 -0.55209816
000090 cc 94 e2 3e 46 54 53 bf 35 6a 8b be bd 0b d6 3d
       0.44254148 -0.82550466 -0.27229467 0.10451458
0000a0 27 80 4d bf 30 4a 6e bf 86 f5 33 3d 06 e8 24 3e
       -0.8027367 -0.9308195 0.04393532 0.16104135
0000b0 ab b7 73 3e 2d 20 55 3e 21 bb 80 3d df 8b e6 3e
       0.23800533 0.20813055 0.06285692 0.45028588
0000c0 66 16 32 be 81 dc 03 3f e0 1f c3 be 3e 24 b3 be
       -0.17391357 0.5150834 -0.38110256 -0.34988588
0000d0 91 b7 28 3f 31 6f 8d 3e 25 18 f4 be f6 2e 88 3e
       0.659051 0.27623895 -0.4767467 0.26598328
0000e0 68 44 25 bf d5 51 41 bf 99 5c d6 3e 89 94 bd 3e
       -0.64557505 -0.7551549 0.4186752 0.37027386
0000f0 64 6a 23 3e 24 15 c1 bc ee f3 15 be 82 cb 29 be
       0.15958554 -0.023569651 -0.14643833 -0.16581538
000100 31 a8 36 3e c7 9d 82 be e0 38 b3 bd db 93 05 be
       0.17837597 -0.25511 -0.087510824 -0.13044684
000110 1e 45 16 bf 41 f3 0d bf 1d 98 03 bf bb 91 f4 be
       -0.58699214 -0.554493 -0.5140398 -0.47767434
000120 e9 ea 38 3f 58 58 36 bf 8e 75 b9 3d 60 17 8b 3e
       0.72233444 -0.7122855 0.09055625 0.2716627
000130 16 9a bd 3e 37 a6 97 be c5 dd 1b bf 5c 5e db 3e
       0.3703162 -0.29619 -0.6088527 0.42845428
000140 0e 34 8d be df 5e 18 bf 29 02 2d bf 28 9a 4d 3d
       -0.27578777 -0.5951976 -0.6758142 0.050195843
000150 c7 ac 8e be 72 3d 01 bf 4c 67 0a 3f 89 33 1d be
       -0.27866194 -0.50484383 0.5406387 -0.1535169
000160 b9 c3 e3 be 73 ba b7 be 1f 0a 34 3f 49 7c 16 bf
       -0.44485262 -0.35884437 0.70327944 -0.58783394
000170 a0 55 0b 3f 7d 90 7f 3e 5c 49 bf 3e af a3 87 3e
       0.5442753 0.24957462 0.37360656 0.26492068
000180 f4 ae 01 bf da 0c a6 3e 1e e3 88 be 98 12 9a be
       -0.5065758 0.3243168 -0.26735777 -0.3009231
000190 9c 1a a3 3e 6e e5 85 3e fe 66 1b bd 78 e0 33 3f
       0.3185624 0.26151603 -0.037940018 0.7026439
0001a0 6a 4c 7a be c0 dc 84 3e 5d 80 11 3f ba c8 fb 3e
       -0.24443212 0.2594967 0.5683649 0.4917658
0001b0 b4 3f ff 3e 9d 13 26 3f a9 1d 30 be 8d 30 e1 be
       0.4985329 0.6487368 -0.17198814 -0.43982354
0001c0 af 70 c0 be ec cd c9 be bb 1c 23 3f 91 c4 64 3e
       -0.3758597 -0.39414918 0.63715714 0.22340609
0001d0 b9 a3 10 bf b4 c1 2d 3f d3 cf 15 3f 14 b9 3c 3c
       -0.5649982 0.6787369 0.5852024 0.011518735
0001e0 06 a8 63 3e c4 dc 2e 3f 3a 96 ee bd 8e d6 cc 3e
       0.22232065 0.6830561 -0.11649747 0.40007442
0001f0 de 6c 13 3f 05 8b fe 3e 79 12 35 bf 24 12 79 bf
       0.57587993 0.49715438 -0.7073131 -0.97293305
000200 f7 12 14 bf 5c 3c e8 be 4a 2a 26 bf 37 ce 35 bf
       -0.5784144 -0.4535855 -0.6490828 -0.71017784
000210 b8 9a 3f bf 8f 04 9a be 02 3d 89 be 56 d9 af be
       -0.7484546 -0.30081603 -0.26804358 -0.34345502
000220 16 2f be be 35 93 9b be b1 3e 1a bf f6 35 01 bf
       -0.371453 -0.30385748 -0.6025191 -0.5047296
000230 e0 e2 41 bf bd f4 41 bf d0 6f 06 3f 6f 04 01 bf
       -0.7573681 -0.75764066 0.5251436 -0.5039739
000240 07 91 f7 3d 42 30 1f 3f b2 a3 17 bf ab 08 14 bf
       0.12088209 0.6218301 -0.59234154 -0.57825726
000250 c3 71 d8 be be f6 d2 be a6 78 ba ba 1e 9e fa bd
       -0.42274293 -0.41203874 -0.001422663 -0.1223719
000260 25 6f 7a 3d ee fb 4b 3d 88 b9 53 be f5 d8 4b 3e
       0.061141152 0.049800806 -0.20676243 0.19906981
000270 9e b6 24 3f 26 d6 9e be 4c a7 eb bb b5 3d 77 bd
       0.6434115 -0.31022757 -0.007191574 -0.060361583
000280 28 34 03 3f 41 51 9b 3d 08 a9 ca be 75 f7 f8 3e
       0.5125146 0.07583857 -0.39582086 0.48626295
000290 2c 88 c5 be 4a 4e 8f be 8d cd 1c 3f eb 57 4a 3e
       -0.38580453 -0.27989417 0.61251146 0.197601
0002a0 ff 2a e9 3e ee 49 da be 9b b7 7c 3e 10 0c 3a 3e
       0.45540616 -0.4263453 0.24679415 0.18168664
0002b0 c6 20 ad 3d 73 db 06 3d f8 75 aa ba 94 b8 d8 3d
       0.08453517 0.032924127 -0.0013005128 0.105820805
0002c0 08 83 84 3e 49 83 ac 3d f2 9d 87 3d 2e df 8b 3e
       0.2588122 0.08423478 0.066219226 0.2731871
0002d0 15 04 4d 3e ce e9 65 3e 1b ec 06 bf 8c 6a 92 3e
       0.20021088 0.2245247 -0.5270402 0.28596914
0002e0 78 8a 21 3e 10 73 39 3f 88 9a 7a bf b6 51 60 bf
       0.15775478 0.72441196 -0.97892046 -0.8762468
0002f0 f8 c5 2b bf c7 a4 25 bf 65 d8 57 bf d9 15 66 bf
       -0.6709895 -0.64704555 -0.84314567 -0.89877087
000300 c9 85 12 bf 13 e8 2c 3f 2e 13 63 3f ee 89 55 3f
       -0.5723539 0.6754162 0.8870114 0.8341359
000310 3b 98 1d bf 98 63 03 3f 81 48 d9 3e 36 39 15 3f
       -0.6156041 0.51323843 0.4243813 0.5829042
000320 69 9e 27 bf 49 64 d2 3e 66 49 1b 3f 15 72 ee 3e
       -0.6547609 0.41092137 0.6065887 0.46571413
000330 10 3c 0c bf 17 a2 11 3f e3 90 d2 be a8 e1 11 bf
       -0.5477915 0.56887954 -0.41126165 -0.5698495
000340 60 97 f2 be 2a 96 bf 3e 02 6c b0 be 37 36 09 3f
       -0.47381115 0.37419254 -0.34457403 0.5359835
000350 19 88 0e bf cc f2 cc be 41 0b bc be 05 71 e3 be
       -0.5567642 -0.4002899 -0.36727336 -0.44422165
000360 de 7e ca be 11 15 a2 be b1 10 58 3e 66 08 d6 bc
       -0.39549917 -0.31656697 0.21100117 -0.026127052
000370 8f c4 10 bf 36 d4 f7 be 32 c3 1a bf 56 73 b2 be
       -0.56549925 -0.48404092 -0.60454094 -0.3485362
000380 b7 09 67 bf 63 50 d1 3e 23 4b 4e bf 05 d9 c1 be
       -0.902492 0.40881643 -0.805834 -0.37860885
000390 d6 c0 06 bf dc eb c1 be 6d a3 06 bf 81 bf 0e 3e
       -0.52637994 -0.3787526 -0.5259312 0.1394024
0003a0 09 82 3d 3f 7c 49 45 3f 4f 88 c7 3d 11 54 15 be
       0.7402654 0.77065253 0.09742796 -0.1458285
0003b0 7b b3 40 be 82 3c 8c be 18 3a 7c 3f c5 1b c2 be
       -0.18818466 -0.27389914 0.98526144 -0.3791181
0003c0 03 ed 8a 3e dc 4c 13 3f 54 cb f9 be e4 31 c7 3e
       0.2713395 0.57539153 -0.4878794 0.3890525
0003d0 e2 b8 ff 3e 74 19 20 3f 88 fc c8 3d d7 b3 00 3c
       0.49945742 0.6253884 0.098137915 0.007855377
0003e0 9d 1b 15 3e 66 76 c4 bd fd a4 0a bd f8 13 c0 3e
       0.14561315 -0.09592895 -0.03384875 0.37515235
0003f0 37 03 ea 3e c4 2b bc 3b 21 61 82 be 81 42 99 bd
       0.45705578 0.005742522 -0.25464728 -0.07483388

weight_hh_l0 f4 [128, 128]
000000 06 ae 39 bf fb 44 19 3f f4 72 27 3f e4 c3 5b bf
       -0.72531164 0.5987088 0.6540978 -0.8584578
000010 69 4b 16 bf f9 16 37 bf 3c f5 86 3e 86 51 f9 3e
       -0.58708817 -0.7151943 0.26358974 0.4869501
000020 31 a6 c6 3e 14 6c fc bd ff cb 14 bf 14 1f 0c 3f
       0.3879867 -0.12325302 -0.58123773 0.5473492
000030 23 40 06 3f a8 2e 81 be ec e8 b9 be 80 d6 ec be
       0.52441615 -0.25230908 -0.36310518 -0.462574
000040 50 3b 36 3f 0e 93 2e 3f 23 72 8e 3e f5 63 2e bf
       0.71184254 0.6819314 0.27821454 -0.6812127
000050 3b f2 4f 3f 92 cc c2 3e 15 b0 1b 3f e6 82 27 3f
       0.8122899 0.380467 0.60815555 0.6543411
000060 b5 d4 ad 3e d9 8d 0c 3f 8b e4 d9 be c4 b1 0a 3f
       0.33951345 0.5490394 -0.42557177 0.541775
000070 d9 0e 20 3e 57 47 bc 3e af 4c b9 3e bf 48 26 3f
       0.15630664 0.36773178 0.36191317 0.6495475
000080 49 48 4f 3e 10 7e 56 3f 19 d8 20 3f 7f 85 db 3e
       0.20242418 0.83786106 0.6282974 0.42875287
000090 15 f0 eb 3e a5 8d 8e 3e 90 81 2c 3f 0b 36 1e bf
       0.46081606 0.2784244 0.67385197 -0.61801213
0000a0 b6 bc 52 3f ec 14 0f 3f 6d f7 12 bf 3e f6 4e bf
       0.823192 0.558913 -0.5740879 -0.80844486
0000b0 46 19 67 3f cd 63 f9 3e 2a be 9e 3e 20 d0 f7 be
       0.9027294 0.48708954 0.3100446 -0.48400974
0000c0 a1 29 2e bf 60 cb 85 be a5 1e 35 3f d5 ec 3b 3f
       -0.6803227 -0.26131725 0.70749885 0.7340825
0000d0 23 f0 66 3f 7f 55 fe 3e 09 b1 71 3e ba e9 5d 3e
       0.9021017 0.49674603 0.2360269 0.21671191
0000e0 27 25 81 3c 30 b4 10 bf 9e e9 de be 9b a9 98 be
       0.015764786 -0.56524944 -0.4353761 -0.298169
0000f0 37 54 e0 be 1d dd fd be e9 2b f5 3e 94 80 03 bf
       -0.4381425 -0.4958276 0.47885063 -0.5136807
000100 4f 23 59 bf 10 32 2a 3e fc f8 8a be 00 78 02 3f
       -0.848195 0.1662066 -0.27143085 0.50964355
000110 4a c0 2b bf d3 0f bf be 42 0e 0e 3f 2d 44 b7 be
       -0.67090285 -0.3731676 0.55490506 -0.35794201
000120 8c 46 62 3f dd dc 2b 3f 7a f6 34 bf b2 76 9f 3e
       0.88388896 0.67133886 -0.70688593 0.31145245
000130 2f 47 ac bc f4 fe b4 be 01 76 56 3e c9 c0 ed be
       -0.021030037 -0.35350764 0.20943452 -0.46436146
000140 c1 47 e4 be 84 8c df 3e ff a3 3b bf 9e cd ab 3e
       -0.44585994 0.43661892 -0.73297113 0.3355531
000150 eb 87 45 bf 6d 3a 0f bf 3c e1 eb be 80 71 63 bf
       -0.7716052 -0.55948526 -0.46070278 -0.8884506
000160 21 ac c6 3e e9 a4 c4 3e af ae 85 3e 33 c2 ba be
       0.388032 0.38407066 0.26109836 -0.36476287
000170 41 ad 96 3e f6 b4 ea be 40 c4 60 bf a4 93 a3 3e
       0.29429057 -0.45841187 -0.87799454 0.31948578
000180 a2 38 1b 3f 52 d2 b6 be ed f0 80 3f f0 c1 1f bf
       0.6063329 -0.35707337 1.0073525 -0.624053
000190 b4 d1 39 3e 98 7b 12 bf f0 c5 7b be 99 87 f0 be
       0.18146402 -0.5721984 -0.24587226 -0.46978453
0001a0 0f 45 56 3f 60 d2 87 be 0f 3d 25 3f 4e 8e e2 be
       0.83699125 -0.2652769 0.64546293 -0.44249195
0001b0 80 a5 3c 3f d2 17 e5 be 91 55 23 3c 81 85 0f bf
       0.7369003 -0.44744736 0.009969131 -0.56063086
0001c0 64 c7 07 3f d9 52 42 3f ab ed 6a 3e cd 4b 19 3f
       0.5303862 0.75907665 0.22942226 0.5988129
0001d0 9b 41 09 3f db 18 04 bf 4d f4 15 bf ba 3c 0e 3f
       0.5361573 -0.51600426 -0.585759 0.5556141
0001e0 c7 0e 2e be c3 39 2f bf 6d 93 2e 3f 7c 7e 2e bf
       -0.16997825 -0.6844751 0.68193704 -0.6816175
0001f0 18 b1 67 bf f6 a5 35 bf b6 3a 47 bf 7e 00 94 3e
       -0.905046 -0.7095636 -0.7782396 0.28906626
000200 fd 23 23 3f d0 27 25 bf d7 20 23 bf ac 76 29 3f
       0.6372679 -0.64513874 -0.63721985 0.66196704
000210 de 40 0a 3f fb 25 14 3f 10 61 e0 be d7 3c 9d be
       0.5400523 0.57870454 -0.43824053 -0.3071048
000220 22 dc 19 bf ac bd ac 3e 88 e7 36 3f e8 d9 79 be
       -0.6010152 0.33738458 0.7144704 -0.24399531
000230 82 10 2a bf 11 d2 e2 3e 6d 3b e0 3e 36 1f 13 3f
       -0.6643144 0.44300893 0.43795338 0.574695
000240 e2 e8 25 bf 02 c8 02 bf 81 a4 6b be 80 24 eb 3e
       -0.64808476 -0.5108644 -0.23011972 0.45926285
000250 d0 7a 4a bf 0c df 83 be a3 84 cf be a1 cc 35 bf
       -0.79093647 -0.2575611 -0.4053088 -0.71015364
000260 16 8e 1f bf bd 32 15 bf 89 ca 00 3f 07 c1 ee be
       -0.6232618 -0.58280545 0.50309044 -0.46631643
000270 8e d3 9e be 7e ec 1f bf ec df de be bf e4 07 bf
       -0.31020778 -0.62470233 -0.43530214 -0.53083414
000280 03 e0 d2 be 48 f9 35 bf 95 6e 02 bf e2 85 ee be
       -0.41186532 -0.710835 -0.50949985 -0.4658652
000290 54 17 c3 be 32 e1 c6 be 1a ba c5 be fa 2f 01 3f
       -0.38103735 -0.38843685 -0.38618547 0.5046383
0002a0 37 81 36 bf 5e ff 10 bf 12 4e 27 3f 52 19 4c 3f
       -0.71290916 -0.5663966 0.653535 0.79726136
0002b0 cf d8 28 bf bf 2b 0b bf a2 b1 53 be 96 34 fa 3e
       -0.65955824 -0.54363626 -0.2067323 0.48868245
0002c0 4d 6b 2b 3f 12 e2 93 3e dd 21 21 bf ca e9 d1 be
       0.66960603 0.28883415 -0.62942296 -0.4099868
0002d0 b5 72 24 bf c1 06 2d bf ba 87 9d be b5 e6 77 be
       -0.6423753 -0.6758843 -0.30767614 -0.24209101
0002e0 39 42 62 3e 5f 6b da 3e ac d9 02 3f b2 c6 7e 3e
       0.22095574 0.42660043 0.5111339 0.24880484
0002f0 15 c8 bc 3e 8e a7 10 3f 19 ad 19 bf 4b 5a 06 3f
       0.368714 0.5650567 -0.6002975 0.52481526
000300 1a b3 4d 3f 9d fd ce be a5 8f fa 3e 21 fa 00 bf
       0.8035141 -0.40427867 0.48937717 -0.50381666
000310 f3 f3 3e 3f 63 b6 9f 3e e4 54 e7 be 45 4a 0a 3f
       0.74590987 0.31193838 -0.45181954 0.54019576
000320 86 04 02 bf 1f dd 39 bf 11 7e 28 3f 6a 36 83 be
       -0.5078815 -0.7260303 0.6581736 -0.25627452
000330 33 e0 fb 3e b3 81 9b 3e b9 6c 94 be 62 dc 08 3f
       0.49194488 0.3037239 -0.289892 0.5346128
000340 0a 0e 1c 3f 27 5b ab be 67 fa 18 3f 29 ae 93 be
       0.6095892 -0.3346798 0.59757084 -0.2884381
000350 a2 03 1f 3f 16 8a 20 3f ba 20 c8 3e 43 fa 23 3f
       0.6211492 0.627107 0.39087468 0.64053744
000360 b3 58 45 bf a6 7b 44 bf 5c 7f 15 bf a2 41 2d 3f
       -0.7708847 -0.7675117 -0.5839746 0.6767827
000370 af 8e c0 be 6f d0 2b 3f fb 87 40 3f c7 80 b3 be
       -0.3760886 0.6711492 0.7520749 -0.35059187
000380 c1 8e 27 bf c5 99 b2 3e 04 0e 44 bf cb 01 2c 3f
       -0.654522 0.34882942 -0.76583886 0.67190236
000390 67 e3 84 be 69 52 01 3f 0e 06 26 3f ad 53 c8 3e
       -0.25954744 0.5051637 0.6485299 0.3912634
0003a0 03 2c 46 bf 40 30 af 3e 69 d8 11 bf 53 3f dd 3e
       -0.77410907 0.342165 -0.5697084 0.43212375
0003b0 46 df 25 bf 46 44 86 3e 02 00 a7 be db bb d2 3e
       -0.64793813 0.26223963 -0.32617193 0.41158947
0003c0 8b 96 33 bf b2 95 23 bf c5 ae 99 be 5d 46 39 bf
       -0.70151585 -0.6390029 -0.3001615 -0.7237299
0003d0 b3 2c 0c bf b2 1b 27 3f 8c 50 05 3f b3 17 df be
       -0.54755706 0.65276635 0.5207603 -0.4357277
0003e0 17 f2 ba 3e 52 24 f9 3e 44 71 fb be a3 4d e5 3e
       0.36512825 0.48660523 -0.49109852 0.44785795
0003f0 4b 15 cf 3e 8e 29 ab 3e 49 4e 35 3f 6a 1d c1 be
       0.40445933 0.3343014 0.7082258 -0.37717754

bias_ih_l0 f4 [128]
000000 fd d4 9c 3e 3f 4a c7 3e 7a 3e 80 bf 8a ab bc be
       0.30631247 0.38923833 -1.0019066 -0.36849624
000010 73 7f 09 3f 16 2f 2e bd 43 4f e5 3e 88 bd 25 3c
       0.537101 -0.042525373 0.44787034 0.010115989
000020 fe 5e 87 be 1a e1 e8 be fa d7 41 3e 92 19 06 be
       -0.2643966 -0.4548424 0.18930045 -0.13095692
000030 9f 33 0f 3f 78 99 22 bf a7 4d 6c be be ac 1f 3f
       0.5593814 -0.63515425 -0.23076497 0.6237296
000040 e2 d3 e2 be 1d d3 8a 3d b7 32 fa 3e 57 95 13 3f
       -0.4430228 0.06778548 0.48866817 0.5764975
000050 41 06 b7 3e 38 e4 22 bf 62 f8 37 bf 06 6a 37 bf
       0.3574696 -0.63629484 -0.7186338 -0.71646154
000060 64 7e aa 3c 7a 6c da bd 23 d6 13 3f 35 5e dd be
       0.02081222 -0.106652215 0.5774862 -0.43235937
000070 aa 7a f9 3e a0 cf a7 bd e9 ae a4 3e b4 85 6e bf
       0.48726398 -0.08193898 0.32164696 -0.93172765
000080 e5 6a ee be ea b6 b7 3e fc 59 14 bf d9 65 86 be
       -0.4656593 0.3588174 -0.57949805 -0.2624958
000090 95 ea b5 be ee db 0c bf 4e b4 05 bf 2a 33 51 3e
       -0.35530534 -0.55023086 -0.5222825 0.20429674
0000a0 a3 32 7b 3e ba b3 72 3d 1c e2 06 3f a1 fe b0 3e
       0.24531035 0.05925343 0.52688766 0.34569266
0000b0 22 b1 12 bf 21 3d b6 be 4e c8 c5 be 76 74 a3 3e
       -0.57301533 -0.35593513 -0.38629383 0.3192479
0000c0 4a 4d ed 3e 86 67 c7 be 05 6b 24 bf 89 63 c7 3e
       0.4634803 -0.3894617 -0.642258 0.38943127
0000d0 50 8d cb be 0b c3 22 bf 88 98 69 3e 0b 1b 94 3e
       -0.3975625 -0.6357886 0.22812092 0.28926882
0000e0 6d ce e9 be 9f 9d 98 3e 79 e6 01 bd 7b a8 33 3d
       -0.45665303 0.29807755 -0.031713936 0.043861847
0000f0 3b e3 eb 3e 12 2b 41 3f 07 be 97 bf 96 d5 06 3f
       0.460718 0.75456345 -1.1854867 0.52669656
000100 8e b1 27 3f b4 06 17 bf 92 df 95 be 2b 3d 33 bf
       0.655053 -0.58994603 -0.29272133 -0.7001521
000110 11 bf de be d5 35 e6 be 80 af 82 3c 54 c4 1f bf
       -0.43505147 -0.44962946 0.015952826 -0.6240895
000120 91 15 07 bf e4 e8 11 bf 1e a8 01 3f 3e bf f8 bc
       -0.5276728 -0.5699599 0.5064715 -0.030364629
000130 d9 0b ed be ba 14 cf be 4e e7 d6 3e 74 9a 3e 3f
       -0.46298102 -0.404455 0.41973346 0.74454427
000140 16 e5 29 3e 9e 06 be be bf d9 91 3d a7 80 ff 3e
       0.16591296 -0.37114424 0.0712161 0.4990284
000150 67 0c 16 3f ce 3a ee 3e 7e c4 fb 3e 02 22 24 3f
       0.58612674 0.4652924 0.4917335 0.6411439
000160 7a 2d 1f 3e 32 99 27 bf b4 37 c6 3e 86 e2 36 3f
       0.15544692 -0.6546813 0.38714373 0.714394
000170 a0 b5 da be 74 4d 9e 3e d1 b9 f1 be 28 71 a2 be
       -0.42716694 0.30918467 -0.4721208 -0.31726956
000180 a8 46 5b bf 84 0d db bd bf 5c 2d bf d2 7e 29 3f
       -0.8565469 -0.10695937 -0.67719644 0.6620914
000190 e6 68 c0 3e 7e 6c 8c 3e 1e 15 04 3f 42 ec 28 3f
       0.3758003 0.27426523 0.5159472 0.659855
0001a0 b4 3c 07 bf a9 ef 75 3f 3a ac 6a bf 9a 79 0f bf
       -0.52827 0.9606882 -0.91669047 -0.56044924
0001b0 a7 da 8b be 5f e6 7d 3f ab d3 fd 3e a3 19 37 3f
       -0.27315256 0.99179643 0.49575552 0.71523494
0001c0 36 62 46 be 73 9f a6 be 3b fd 6f bd 45 da 55 be
       -0.19373402 -0.32543525 -0.05859111 -0.20884044
0001d0 7f 55 a5 be f7 82 e3 3d ab c3 1a be 15 77 da be
       -0.3229179 0.11108964 -0.15113704 -0.42668977
0001e0 45 a3 5e bf d4 81 bb 3a 81 01 0f bf 4e eb f0 be
       -0.8696788 0.001430566 -0.5586167 -0.47054523
0001f0 78 78 8d 3f ad db 7a 3e 19 9f 23 3e 5d a2 e8 3e
       1.1052389 0.24497862 0.1597866 0.45436373

bias_hh_l0 f4 [128]
000000 cf 1e 95 3e 4a 33 eb 3e 7a 08 6c bf f5 a4 ce be
       0.29125068 0.45937568 -0.92200434 -0.40360227
000010 45 93 0d 3f f5 72 82 bd 39 65 c1 3e a6 46 fb 3d
       0.5530284 -0.063695826 0.3777254 0.122693345
000020 e9 7f 2a be 85 ab e7 be bf 3f eb 3d e4 a6 42 be
       -0.16650356 -0.45248047 0.11486768 -0.19008976
000030 a1 64 37 3f f0 92 2c bf fc 05 78 be 79 a6 34 3f
       0.7163792 -0.6741171 -0.24221033 0.7056652
000040 68 d3 11 bf 3f 4f cc bd b0 69 ff 3e 79 35 1d 3f
       -0.56963205 -0.099760525 0.4988532 0.6140972
000050 58 dc bd 3e a5 72 10 bf a3 b2 22 bf 33 42 38 bf
       0.3708217 -0.56424934 -0.6355383 -0.7197601
000060 73 33 11 3d 64 e2 14 bd c8 12 04 3f 26 9c bf be
       0.035449456 -0.036348715 0.5159116 -0.3742382
000070 63 04 05 3f d3 99 67 bd 13 7a 86 3e f0 a2 78 bf
       0.5195982 -0.056543183 0.2626501 -0.9712362
000080 bf 24 1c bf 01 87 eb 3e 55 d9 fb be 53 07 6a be
       -0.6099357 0.46001437 -0.4918925 -0.22854356
000090 c9 aa a2 be 4c 83 0c bf 58 16 05 bf 31 49 1c 3e
       -0.31770924 -0.54887843 -0.5198722 0.15262295
0000a0 79 01 b3 3e 94 64 6d 3d e7 90 06 3f dd ad d8 3e
       0.3496206 0.057957247 0.52564853 0.42320147
0000b0 57 f1 0d bf 24 71 61 be bd d8 61 be 45 85 b4 3e
       -0.5544638 -0.22015816 -0.22055335 0.35257927
0000c0 aa 66 ff 3e 07 bb 6c be 63 58 39 bf c1 c2 b6 3e
       0.49883014 -0.2311822 -0.7240049 0.3569546
0000d0 8d f5 da be 08 4b 28 bf 14 b4 75 3e 9f 60 b0 3e
       -0.42765465 -0.6573949 0.23994476 0.34448716
0000e0 4d 2d ed be c4 f4 ca 3e 16 ed f1 bd 16 b8 8c bc
       -0.46323624 0.39639866 -0.11812799 -0.017177623
0000f0 5f 72 c6 3e cf a4 3e 3f 4e 84 a4 bf f8 a5 11 3f
       0.38759133 0.7447023 -1.2852876 0.56893873
000100 ee 43 14 3f af 3a 1b bf 04 3f 84 be d2 3c 4d bf
       0.5791615 -0.6063642 -0.25829327 -0.8017093
000110 3c 6b 01 bf a6 37 0a bf 0e 6f 24 3d 2c 33 04 bf
       -0.5055425 -0.5399116 0.040144973 -0.5164058
000120 37 a2 05 bf 4e 71 06 bf 2c 45 05 3f b4 25 de 3b
       -0.52200645 -0.5251664 0.5205867 0.006779397
000130 f9 67 21 bf 3d 0d ad be 34 16 c7 3e b2 db 5d 3f
       -0.63049275 -0.33799163 0.38884127 0.86663353
000140 ed 00 7d 3e 4a 6b 83 be f9 90 fc 3d 27 2f e1 3e
       0.24707384 -0.25667793 0.12332339 0.43981287
000150 e5 0f 31 3f ea e0 df 3e 9e 1d 18 3f 6a 99 2f 3f
       0.6916488 0.43726283 0.5942019 0.68593466
000160 3c 02 13 3d 66 e5 36 bf 1f 32 95 3e f3 f6 35 3f
       0.035890803 -0.71443784 0.29139802 0.7107994
000170 7a 25 16 bf 60 ec a8 3e 3a 52 bf be 24 51 a8 be
       -0.58650935 0.3299284 -0.3736742 -0.32874405
000180 36 8e 4a bf 03 de 76 be 78 d9 21 bf 69 8f 1c 3f
       -0.79123247 -0.24108128 -0.63222456 0.61156327
000190 29 5b bb 3e a7 29 ce 3e b6 39 04 3f 23 75 0e 3f
       0.36592987 0.40266153 0.5165056 0.55647486
0001a0 78 1c 19 bf 84 cd 65 3f 09 18 48 bf 57 b7 1b bf
       -0.59809065 0.89766717 -0.78161675 -0.6082663
0001b0 25 dd 38 be ea a9 64 3f ef fa c7 3e a7 2c 39 3f
       -0.1805311 0.8932177 0.39058635 0.7233376
0001c0 dd 06 2c be 0d b6 a2 be f7 bb af bd 7b 06 51 bd
       -0.16799493 -0.3177952 -0.08580773 -0.05103157
0001d0 0c 43 69 be 87 ab d0 3c e6 87 02 be 12 ad eb be
       -0.22779483 0.025472416 -0.12747154 -0.4603048
0001e0 a0 84 73 bf 2d 7d 11 be ad 85 15 bf df 87 06 bf
       -0.95124245 -0.14207907 -0.584071 -0.5255107
0001f0 58 07 8b 3f e3 80 0e 3e 4d c1 70 3e eb a1 9e 3e
       1.0861616 0.13916354 0.23511238 0.3098291

weight_ih_l1 f4 [128, 128]
000000 c2 66 e8 3e cf c3 1c bf 3f 58 97 3e ae ec ec 3e
       0.45390898 -0.6123628 0.29559514 0.46274322
000010 ed f4 60 bd fa 22 b7 3e 92 c8 06 3f 09 d8 6b 3e
       -0.05492108 0.35768872 0.52649796 0.2303163
000020 1a 66 12 bf a4 f0 b5 3e 73 d0 b9 be 80 f0 2e 3f
       -0.57187045 0.35535157 -0.36291847 0.68335724
000030 3d 23 a9 3e 0d d5 02 3e 95 5d 30 3f b1 53 84 be
       0.33034697 0.12776585 0.68892795 -0.258451
000040 d8 39 28 3f 8b 03 11 bf 42 b8 2b 3f c4 ff f0 3d
       0.6571326 -0.5664603 0.6707803 0.117675334
000050 62 13 44 bd 1e 67 11 3f 9a 0d 1c 3f 9a 25 8b be
       -0.047870047 0.5679797 0.60958254 -0.27177125
000060 ae 19 21 3f 52 46 b7 3e d8 f2 d5 bd 31 9d 1c bf
       0.6292981 0.35795838 -0.104467094 -0.61177355
000070 ec 49 13 3f df b8 cd 3e b3 fc dd 3e 18 ba 6b 3f
       0.5753467 0.40180108 0.43356857 0.9208083
000080 54 ed 46 3f 25 da 47 3f 56 2f 35 be 07 16 17 3d
       0.77705884 0.7806724 -0.17693838 0.03688624
000090 57 ef 32 be 54 0e 03 3f c4 3a 56 3f 91 0f 86 be
       -0.17474113 0.5119374 0.8368342 -0.2618375
0000a0 13 cd 0a 3f c4 2e 71 3e 2b ce 74 be db 40 e0 3e
       0.5421917 0.23552996 -0.23906772 0.4379948
0000b0 6a 77 ef be 07 15 ce 3e 22 a9 07 be 26 61 12 be
       -0.46770793 0.40250418 -0.13248113 -0.14294872
0000c0 98 de 0c 3e a7 66 04 bf 67 a4 b5 3e 99 ee 18 3e
       0.13756788 -0.51719135 0.35476992 0.14934768
0000d0 33 18 82 be 1a de 6b 3f ae 78 07 3f a2 91 f6 3e
       -0.25409088 0.92135775 0.5291852 0.48157984
0000e0 39 e4 d7 3d 70 ed 91 3e 05 2c cc be 88 ed 0d bf
       0.10541577 0.28501463 -0.39877334 -0.5544057
0000f0 57 c7 18 bf 7a 7b 9d be 57 47 99 3e 55 66 0c bf
       -0.5967917 -0.30758268 0.2993724 -0.54843646
000100 e1 6b 06 bf 8b 8a df 3d a2 2b 97 be b9 f4 8f 3e
       -0.5250836 0.10915097 -0.29525477 0.28116396
000110 36 04 d1 be 72 a7 00 bf b4 a1 74 3f 16 84 0c 3f
       -0.40823525 -0.502555 0.9555924 0.5488905
000120 6e fc e7 be 67 52 63 3f 86 99 cd 3e 34 06 1b 3f
       -0.45309776 0.8879761 0.40156192 0.6055634
000130 be 21 84 3e 30 c2 74 bf 5c f8 c6 3e 5f b3 c7 be
       0.25806993 -0.95608807 0.38861358 -0.39004037
000140 7b 0b b2 be ea b5 9f 3e 30 29 d9 3e 73 53 f4 3e
       -0.34774384 0.31193477 0.42414236 0.47719917
000150 3e e4 bb 3e ad c2 b8 be a6 d0 8a 3e 49 fa fe 3e
       0.36697572 -0.36086026 0.2711231 0.49800327
000160 30 30 76 3e 23 1b 94 3e 8a 86 c9 3e a4 22 cc 3e
       0.2404182 0.28926954 0.39360458 0.3987018
000170 9e 72 b3 be 85 9a 99 be eb b1 de 3e 67 2c 00 3f
       -0.35048383 -0.30000702 0.43495116 0.5006775
000180 7d 90 90 3e e9 a4 72 bf 81 56 92 be 9a 02 9a 3e
       0.28235236 -0.9478288 -0.28581622 0.3008011
000190 c0 67 f4 3e 96 19 90 be 63 ef 91 be e8 0f 91 3d
       0.47735405 -0.2814452 -0.2850295 0.07083112
0001a0 a2 f3 f8 be f0 64 05 bf bd 81 89 3e 9d d8 ea be
       -0.48623377 -0.52107143 0.26856795 -0.45868388
0001b0 f7 86 0f 3f 75 d8 f5 be 0b 13 0c 3f 8a 72 87 3e
       0.56065315 -0.48016706 0.5471656 0.26454574
0001c0 0d 29 b9 3e 17 67 30 be c5 a4 1f 3f b5 9f c5 3e
       0.36164132 -0.17226826 0.62360793 0.3859841
0001d0 85 8d b0 3e f2 c7 b9 be d7 09 5b bf 25 2c a3 be
       0.3448297 -0.3628536 -0.8556189 -0.31869617
0001e0 03 18 ee 3e 36 d6 81 be 9d 73 89 be 8d ea 3a bf
       0.46502694 -0.25358742 -0.26846018 -0.73014146
0001f0 3d 94 09 bf 7c 6d f3 be e3 b8 b3 3e 39 af 14 3f
       -0.5374182 -0.47544467 0.35101995 0.5807987
000200 e8 51 eb be b5 65 1e 3f a3 a5 c0 be e9 b9 a7 be
       -0.45960927 0.6187394 -0.3762637 -0.32759026
000210 07 b2 69 3f 69 4f 98 be bb e4 07 bf 8d d9 85 bb
       0.91287273 -0.29748085 -0.5308339 -0.004084772
000220 b3 23 e7 3d f1 54 fe 3d 5b c7 a7 3e ea 48 57 bf
       0.11286106 0.12418545 0.32769284 -0.84095633
000230 28 37 52 be b8 97 8a 3e 15 ac 32 bf fc f6 8f 3f
       -0.20528853 0.27068877 -0.69793826 1.1247249
000240 3f f5 c8 be 40 9d df 3e 88 af 3c bf ed af 72 3f
       -0.39249608 0.4367466 -0.7370534 0.9479969
000250 fd fd 58 bf 38 d7 00 bf bd c6 3f bf 48 33 e7 3d
       -0.84762555 -0.503284 -0.74912626 0.11289078
000260 ef 8c 3e bf 80 d2 bc be 1c 63 9b 3f 49 56 c0 3d
       -0.744338 -0.3687935 1.2139621 0.093914576
000270 59 88 da be 41 96 99 be 15 be 33 be 5c a8 35 bf
       -0.4268215 -0.29997447 -0.1755298 -0.7096002
000280 bc 18 43 bf c1 18 aa 3e ba 42 36 bf 86 6e 85 bf
       -0.76209617 0.3322201 -0.71195567 -1.0424354
000290 59 b2 b9 3c e5 80 19 bf 5e e4 59 bf c4 eb a8 3e
       0.02266805 -0.599623 -0.85114086 0.32992375
0002a0 a4 bd 28 bf 49 36 b5 be 5c e4 6f bb 0f 7c c9 3d
       -0.6591437 -0.3539298 -0.0036604619 0.098381154
0002b0 89 7e 1e 3e 81 6f 8c be 61 07 99 bf f8 88 5c 3e
       0.15477957 -0.2742882 -1.1955377 0.21536624
0002c0 e3 e4 d8 bd 82 e1 b9 3e 59 79 fd be ff 6a 46 3e
       -0.10590532 0.3630486 -0.49506643 0.19376753
0002d0 af 97 31 be 06 56 0a bf 1e 84 f5 be d1 96 e2 be
       -0.17343019 -0.5403751 -0.4795236 -0.4425569
0002e0 72 b7 0a bf 3e 32 72 3f 9b 0b c6 3e 53 8c fb 3e
       -0.54186165 0.94607913 0.3868073 0.49130496
0002f0 a9 b9 cc 3e ee a0 9e 3e ae 9d b8 be 76 ea 24 3f
       0.39985397 0.30982155 -0.360578 0.6442026
000300 99 7f 0f 3f 06 15 cf be e8 20 f0 be 16 52 ba be
       0.56054074 -0.40445727 -0.46900105 -0.36390752
000310 14 58 7c bc eb 75 df 3e 6b 80 4b bf bc ce c2 3e
       -0.015401859 0.43644652 -0.79492825 0.3804835
000320 a6 6b 36 3e 4e ae 1e bf 0e ac 85 be 4d b4 e1 be
       0.17814502 -0.6198472 -0.2610783 -0.4408287
000330 b9 c6 a8 be d9 0e 4e 3f b0 e3 de be 20 48 f2 3e
       -0.32964113 0.80491406 -0.43533087 0.47320652
000340 6a 2b 87 3e e9 01 a1 be da 30 1a 3f fc 17 1c bf
       0.2640031 -0.3144677 0.6023079 -0.609741
000350 00 d8 54 3f ad 03 3e be ea 7c 67 3f 9d 48 0b bf
       0.8314209 -0.1855609 0.9042498 -0.54407674
000360 d7 1a 65 be 9b c4 65 be bc 53 06 bf 49 2f 77 bd
       -0.2237352 -0.2243828 -0.5247152 -0.06034783
000370 a8 5f 29 bf 43 c6 87 3e 34 83 2d 3e ec 24 06 bf
       -0.66161585 0.2651845 0.16944581 -0.5240009
000380 6b f9 9e be 07 77 42 3f 40 1e b9 be 9e 54 00 3f
       -0.31049666 0.7596287 -0.3615589 0.50129116
000390 2d d1 a6 be 4f 6f b7 3e 8f 93 94 3e 31 ca 8f 3f
       -0.32581463 0.3582711 0.29018828 1.1233579
0003a0 95 0d 7a 3e be 14 07 3f 9c aa ad be 05 e5 e2 3e
       0.24419244 0.52766025 -0.33919227 0.44315353
0003b0 57 a5 1b bf 52 c4 06 3f 26 9a ff be 7d a7 c5 bd
       -0.60799164 0.5264331 -0.49922293 -0.096510865
0003c0 4b d6 99 be ba 83 f7 bd e5 26 e3 be d3 39 56 be
       -0.30046305 -0.12085672 -0.44365612 -0.20920496
0003d0 2b 93 82 be 97 0e 80 3e aa 3c 21 3f b1 5c a7 be
       -0.25502905 0.2501113 0.6298319 -0.32687905
0003e0 18 b2 1a bf f1 29 ae 3e 76 21 19 bf 83 a4 3e 3f
       -0.60428 0.34016374 -0.5981668 0.74469775
0003f0 c7 50 30 bf 13 8a c2 3e 43 7b 4c 3f 71 48 dc be
       -0.68873256 0.37995967 0.7987558 -0.43024018

weight_hh_l1 f4 [128, 128]
000000 77 9f da 3e 1e 85 16 bf c0 1c 2a 3f 39 1f 28 3f
       0.42699787 -0.5879687 0.6645012 0.6567264
000010 d6 52 10 bf 25 34 27 bf 04 7f 81 be 49 5c 2d 3f
       -0.563764 -0.6531394 -0.25292218 0.6771894
000020 c2 4f 38 bf 4f a8 9e 3e 22 d1 3c 3f 83 30 25 bf
       -0.719967 0.30987784 0.7375661 -0.6452715
000030 10 29 fd 3e c0 ae 3c bf 78 2e dd 3e f1 c8 2f bf
       0.4944539 -0.7370415 0.43199515 -0.6866599
000040 8b 81 1d bf 2e 01 ea be 3d 90 00 3f 0d 49 2b bf
       -0.6152579 -0.45704025 0.5022009 -0.6690834
000050 f2 45 4e be 19 1c 23 3f 9b bd 29 bf 3a 15 1d 3f
       -0.2014387 0.6371475 -0.6630494 0.61360514
000060 88 0d e7 3e 44 d7 68 be 38 4e 1a bf 18 d4 2e 3f
       0.4512751 -0.22738367 -0.602756 0.6829238
000070 3b bf 52 bf 10 a5 07 3f e3 07 20 bf 2f 09 1b bf
       -0.82323045 0.5298624 -0.62512034 -0.6056089
000080 93 56 dd be 86 7d 05 bf 71 ba 51 bf 49 98 ef 3e
       -0.43230113 -0.5214466 -0.8192511 0.46795872
000090 db 0d 1c bf cd ff 0a 3f 5c 00 41 3f 40 80 44 3f
       -0.6095864 0.5429657 0.75391173 0.76758194
0000a0 c7 bd f2 be 16 87 26 3f 78 97 0a 3f 2e 11 bf 3e
       -0.47410414 0.65049875 0.5413737 0.37317795
0000b0 d7 54 32 bf 7b b1 55 be 05 2c 19 3f fc 73 12 bf
       -0.69660705 -0.20868485 0.59832793 -0.5720823
0000c0 76 ae 1f 3f ac 82 2e bf 6e 87 13 3f bb 60 ae be
       0.6237558 -0.6816814 0.57628524 -0.34058174
0000d0 4f f2 24 3f d3 ae 0c 3f 23 d1 0d bf 27 6b 31 3f
       0.64432234 0.5495426 -0.5539724 0.69304127
0000e0 36 63 c5 3e ae af 18 3f ea f1 00 bf a7 eb 44 3f
       0.38552254 0.59643066 -0.5036913 0.76922077
0000f0 07 3c 2e 3f 07 6f 3b 3f 1f 0a 24 bf 3e 11 1d bf
       0.68060344 0.7321629 -0.64077944 -0.61354434
000100 07 dc 3d 3f 22 a0 29 bf f0 19 29 bf 2b 74 3a bf
       0.7416386 -0.6625997 -0.660552 -0.7283351
000110 33 06 3e 3f 08 0b 27 bf df 97 ca be b1 c2 f6 be
       0.7422821 -0.6525121 -0.39568993 -0.48195413
000120 87 6b f3 be 8b e5 8d be e2 c3 95 be 93 ed 45 3f
       -0.47542974 -0.2771419 -0.2925101 0.77315634
000130 3a 82 db 3e e6 59 35 bf a2 5b 05 bf 7b eb eb 3e
       0.42872792 -0.708403 -0.52092946 0.46078095
000140 22 cb 50 bf 21 26 0b 3f 21 69 40 3f 68 21 15 3f
       -0.81559956 0.54355055 0.75160414 0.582541
000150 e3 65 36 3f 9c 1d 09 bf 39 3e 50 bf 6d ff 62 3e
       0.71249217 -0.53560805 -0.81344944 0.2216775
000160 34 b1 47 3f 9b 2c ea 3e ff db 0d bf d1 85 31 bf
       0.78004766 0.45737156 -0.5541381 -0.6934481
000170 c5 1f 58 3f 28 6a 2d bf c1 24 19 3f 51 c6 d6 be
       0.84423476 -0.67740107 0.59821707 -0.41948178
000180 45 f1 36 bf 60 a3 06 bf 23 c6 30 bf a2 29 be be
       -0.714619 -0.5259304 -0.6905233 -0.37141138
000190 b3 d3 f2 be 94 e8 fc be 52 5e 05 bf 5b 85 9e 3e
       -0.4742714 -0.49396193 -0.52097046 0.30961117
0001a0 03 cd 2c 3f 1a 77 14 3f 1f 08 29 3f b7 6a 50 3f
       0.67500323 0.57994235 0.66028017 0.81412834
0001b0 e7 aa e4 be 45 eb 3f 3f 83 b9 48 3f f9 6b 20 bf
       -0.44661638 0.7496837 0.7840807 -0.62664753
0001c0 22 9d 35 3f 64 63 f2 be c9 dc e8 3e e7 46 0b bf
       0.7094289 -0.47341454 0.45480946 -0.54405063
0001d0 83 fc 63 bf 5f 10 fc 3e 5f 43 34 bf 67 77 21 3f
       -0.8905718 0.4923124 -0.704153 0.6307282
0001e0 1c c4 2f bf 41 14 4c 3f 22 98 03 3f 0d 17 28 3f
       -0.68658614 0.79718405 0.5140401 0.6566017
0001f0 01 6a 25 3f 84 18 3e bf 5b 80 63 be df 60 30 bf
       0.64614874 -0.7425616 -0.22216932 -0.68897814
000200 1c c0 0e bf 23 9f 16 3f 3a c6 12 bf 36 f7 36 bf
       -0.55761886 0.58836573 -0.5733372 -0.71470964
000210 7c 25 0f 3f f4 f1 6c 3f df a1 90 3e 0a 4d 2c bf
       0.5591657 0.9255669 0.28248498 -0.6730505
000220 ee e4 0b 3f 30 9e 7c be ef 53 77 bf 75 be 3b 3f
       0.54646194 -0.24669719 -0.9661245 0.7333749
000230 3f 24 9f be 2f 6b 4f 3f 55 a3 0e bf 94 db 2d 3f
       -0.3108234 0.81022924 -0.55717975 0.67913175
000240 37 bf 57 3f 2d f2 5c 3f 29 8e 32 bf 6d 13 38 3f
       0.84276146 0.8630703 -0.6974817 0.7190464
000250 7f 45 5a 3d d1 ff 1a bf 4b ed 16 3f a7 d5 2b bf
       0.053288933 -0.60546595 0.5895583 -0.6712288
000260 01 41 1a bf 15 9a cc 3e b1 b8 3d 3e b9 dd 3b bf
       -0.6025544 0.39961305 0.18527485 -0.73385197
000270 bb 15 40 3f 6a 61 28 bf bf 97 16 3f fd 83 30 3f
       0.7503316 -0.6577364 0.58825296 0.689514
000280 27 b2 19 3f 93 d5 2b 3f 75 fd 69 3f f9 22 57 be
       0.60037464 0.67122763 0.9140237 -0.21009435
000290 4a 46 1c 3f 85 c5 31 bf cc 58 1f bf a5 f1 76 bf
       0.6104475 -0.69442016 -0.6224487 -0.9646247
0002a0 1a 97 11 3f 41 6e f9 be 76 9d 31 bf 25 72 d1 be
       0.5687119 -0.4871693 -0.6938089 -0.40907398
0002b0 66 40 52 3f 3f e8 64 3e f0 ac 40 bf a4 9d b6 3e
       0.82129514 0.2235422 -0.7526388 0.35667145
0002c0 8f bf 5f bf 5e 9b 34 3f 55 95 1b bf e5 43 1d 3e
       -0.8740167 0.7054957 -0.6077474 0.15357931
0002d0 81 17 26 bf c8 83 1b bf 6b 6b 10 3f 1b 18 52 bf
       -0.64879614 -0.6074796 0.56413907 -0.8206803
0002e0 46 e7 9f be 18 49 48 bf f5 bf 0e 3f 9b 0c 89 bf
       -0.31231135 -0.7823653 0.55761653 -1.0706972
0002f0 6c 86 8c bf e4 55 03 bf 95 f0 22 3f f3 eb 4b 3f
       -1.0978522 -0.51302934 0.6364835 0.79656905
000300 e6 a6 73 be fa 79 19 3f e8 33 30 3f 8a f4 2c 3f
       -0.23794135 0.59951746 0.688292 0.67560637
000310 35 3b 2e bf dd 34 41 3e 2b e5 16 3f 7c 02 32 3f
       -0.6805909 0.18867822 0.5894343 0.6953504
000320 bf c8 70 3f 14 3f 14 bf 33 80 ab 3e e6 64 51 bf
       0.94056314 -0.5790875 0.33496246 -0.81794584
000330 16 0b 14 bf 7f 38 2e 3f f0 be 33 3f 13 54 0b bf
       -0.57829416 0.68054956 0.7021322 -0.5442516
000340 b7 86 76 3f b2 98 b0 be 55 2c 58 be a0 ff 3b bf
       0.9629931 -0.34491497 -0.21110661 -0.7343693
000350 61 25 49 bf 9a f9 3d 3f 79 65 1c 3f f8 2c 3f be
       -0.7857266 0.74208987 0.61092335 -0.18669498
000360 f8 89 2e bf 98 4f 1b bf a3 59 1f 3f 3c 66 5d 3f
       -0.68179274 -0.60668325 0.6224615 0.8648412
000370 79 28 73 bf 8f 22 62 3f 08 a3 47 bf 3b 39 90 3e
       -0.9498363 0.8833398 -0.7798314 0.28168663
000380 40 43 78 3f 5b 65 b6 3e 88 eb 36 3f 53 f7 45 3e
       0.96977615 0.35624203 0.7145314 0.19332628
000390 6b 52 15 3f fb 8b 08 3f fc 26 07 3f 01 80 8e be
       0.58328885 0.53338593 0.5279386 -0.27832034
0003a0 31 f9 47 bf 56 a5 1a bf 4f 7e 30 bf 25 40 82 be
       -0.7811461 -0.6040853 -0.6894273 -0.25439563
0003b0 7c 17 24 3f 13 30 12 bf 88 39 57 bf a1 cc 30 3f
       0.64098334 -0.57104605 -0.8407216 0.6906224
0003c0 ab 97 31 bf a8 bd 7a 3e ab 1f 25 bf de 27 18 3f
       -0.6937205 0.2448641 -0.64501446 0.5943583
0003d0 89 bb 85 3f 11 fb f8 be a9 0c 37 3f a7 6a 61 bf
       1.0447856 -0.48629048 0.7150369 -0.88053364
0003e0 c6 e7 55 3f 09 67 0a bf 42 b2 17 bf 98 8c 4b bf
       0.83556783 -0.5406347 -0.59256375 -0.79511404
0003f0 f9 2e 32 bf 67 fa 1f 3f d3 fe 8e 3e 31 c0 39 3f
       -0.69602925 0.6249146 0.2792879 0.72558886
